…
=0.0, perspective=0.0, flipud=0.0, fliplr=0.5, mosaic=1.0, mixup=0.0, copy_paste=0.0, cfg=None, v5loader=False, save_dir=runs/detect/train
Downloading https://ultralytics.com/assets/Arial.ttf to /root/.config/Ultralytics/Arial.ttf...
100% 755k/755k [00:00<00:00, 42.0MB/s]
2025-04-27 07:49:01.269859: W tensorflow/compiler/tf2tensorrt/utils/py_utils.cc:38] TF-TRT Warning: Could not find TensorRT
Overriding model.yaml nc=80 with nc=3

                   from  n    params  module                                       arguments                     
  0                  -1  1       928  ultralytics.nn.modules.Conv                  [3, 32, 3, 2]                 
  1                  -1  1     18560  ultralytics.nn.modules.Conv                  [32, 64, 3, 2]                
  2                  -1  1     29056  ultralytics.nn.modules.C2f                   [64, 64, 1, True]             
  3                  -1  1     73984  ultralytics.nn.modules.Conv                  [64, 128, 3, 2]               
  4                  -1  2    197632  ultralytics.nn.modules.C2f                   [128, 128, 2, True]           
  5                  -1  1    295424  ultralytics.nn.modules.Conv                  [128, 256, 3, 2]              
  6                  -1  2    788480  ultralytics.nn.modules.C2f                   [256, 256, 2, True]           
  7                  -1  1   1180672  ultralytics.nn.modules.Conv                  [256, 512, 3, 2]              
  8                  -1  1   1838080  ultralytics.nn.modules.C2f                   [512, 512, 1, True]           
  9                  -1  1    656896  ultralytics.nn.modules.SPPF                  [512, 512, 5]                 
 10                  -1  1         0  torch.nn.modules.upsampling.Upsample         [None, 2, 'nearest']          
 11             [-1, 6]  1         0  ultralytics.nn.modules.Concat                [1]                           
 12                  -1  1    591360  ultralytics.nn.modules.C2f                   [768, 256, 1]                 
 13                  -1  1         0  torch.nn.modules.upsampling.Upsample         [None, 2, 'nearest']          
 14             [-1, 4]  1         0  ultralytics.nn.modules.Concat                [1]                           
 15                  -1  1    148224  ultralytics.nn.modules.C2f                   [384, 128, 1]                 
 16                  -1  1    147712  ultralytics.nn.modules.Conv                  [128, 128, 3, 2]              
 17            [-1, 12]  1         0  ultralytics.nn.modules.Concat                [1]                           
 18                  -1  1    493056  ultralytics.nn.modules.C2f                   [384, 256, 1]                 
 19                  -1  1    590336  ultralytics.nn.modules.Conv                  [256, 256, 3, 2]              
 20             [-1, 9]  1         0  ultralytics.nn.modules.Concat                [1]                           
 21                  -1  1   1969152  ultralytics.nn.modules.C2f                   [768, 512, 1]                 
 22        [15, 18, 21]  1   2117209  ultralytics.nn.modules.Detect                [3, [128, 256, 512]]          
Model summary: 225 layers, 11136761 parameters, 11136745 gradients, 28.7 GFLOPs

Transferred 349/355 items from pretrained weights
optimizer: SGD(lr=0.01) with parameter groups 57 weight(decay=0.0), 64 weight(decay=0.001), 63 bias
train: Scanning /content/datasets/Safety-Helmet-Detection-1/train/labels... 211 images, 0 backgrounds, 0 corrupt: 100% 211/211 [00:00<00:00, 2002.96it/s]
…
